Lenet 5(By CPU)/Lenet.pth (torch, 487495 bytes, 10 tensors)

conv1.weight f4 [16, 3, 5, 5]
0	0xbdbca3b1	-0.09210909
1	0x3d9b5979	0.07585425
2	0xbd48ab5b	-0.048991542
3	0x3daf7602	0.0856743
4	0xbe05dea9	-0.1307322
5	0x3d8ffaf9	0.07030291
6	0x3a220327	0.00061802793
7	0xbe0352f2	-0.1282461
8	0xbd886356	-0.06659572
9	0xbc19e1bc	-0.009392198
10	0xbe3a7af8	-0.18210971
11	0xbe84cae3	-0.2593604
12	0xbd263d1f	-0.040585633
13	0xbe5c7672	-0.21529558
14	0xbe02247e	-0.12709233
15	0xbd943a94	-0.072377354
16	0x3ced08c7	0.02893485
17	0xbd98c48c	-0.07459363
18	0xbc84dcf8	-0.016218647
19	0x3d3cfef7	0.04614159
20	0x3dd3bf7a	0.10339256
21	0x3df82f52	0.12118401
22	0x3e94ef9f	0.29089066
23	0x3e82cb70	0.25545835
24	0x3e7362b7	0.23768125
25	0xbdce8bac	-0.10085234
26	0x3dd9c3b4	0.106330305
27	0xbcf08863	-0.02936191
28	0x3c38498c	0.011248004
29	0x3d037673	0.032095384
30	0x3e0f7caf	0.14012407
31	0xbdde8f5d	-0.10867188
32	0xbdc4cc47	-0.09609275
33	0xbdc87311	-0.09787572
34	0xbe20df13	-0.15710096
35	0xbe22ecb2	-0.15910605
36	0xbd269537	-0.040669646
37	0xbe507522	-0.20357183
38	0x3bbd8010	0.0057830885
39	0xbd2f239c	-0.04275857
40	0x3d7dfb8e	0.06200748
41	0x3d58f462	0.052967437
42	0xbce7b413	-0.028284108
43	0x3e08701d	0.13324018
44	0x3e141217	0.14460026
45	0x3dd02db2	0.10164966
46	0x3c12eaf7	0.008967153
47	0x3e54058d	0.20705242
48	0x3da8487a	0.08216949
49	0x3d613d9b	0.054990392
50	0xbd8f2d59	-0.06991071
51	0x3e051f62	0.13000253
52	0xbc99b2f3	-0.018762087
53	0xbbcfeb48	-0.0063451864
54	0xbd489c11	-0.04897696
55	0x3de4bfcb	0.11169394
56	0x3c93e89e	0.018055256
57	0xba89e1c2	-0.0010519552
58	0xbdd27e75	-0.10278026
59	0xbcba7902	-0.02276278
60	0xbd918585	-0.07105545
61	0xbd6d1fa9	-0.05789152
62	0xbdb21f74	-0.086974055
63	0xbdd1631d	-0.102239825
64	0xbc983b91	-0.018583091
65	0xbd61051e	-0.05493652
66	0xbd8dc5e1	-0.06922508
67	0xbd4da5c3	-0.05020691
68	0xbd54d838	-0.051964015
69	0x3ded7eb9	0.11596436
70	0x3d4062c9	0.04696921
71	0x3e156815	0.14590485
72	0x3dd022e5	0.101629056
73	0x3dc35161	0.09537006
74	0xb9beb412	-0.00036373787
75	0xbde493d9	-0.11161012
76	0x3d898348	0.06714493
77	0x3dc56ce2	0.096399084
78	0xbd732c0f	-0.05936819
79	0x3cb83328	0.02248533
80	0xbd81c228	-0.063358605
81	0xbc812e73	-0.015769219
82	0x3ce80455	0.028322378
83	0x3d9e69c9	0.07735021
84	0xbd05039a	-0.032474138
85	0xbdda6388	-0.10663515
86	0xbe00c05b	-0.12573378
87	0x3c13384d	0.008985591
88	0x3e4408cf	0.19143985
89	0x3d8d298d	0.06892691
90	0xbdfd4244	-0.12366155
91	0x3d5e1649	0.05422047
92	0xbd91ad58	-0.07113141
93	0x3da7b608	0.081890166
94	0x3dfe9ffc	0.12432858
95	0x3d240ac2	0.040049322
96	0x3e156f29	0.14593185
97	0x3e2224de	0.15834376
98	0xbdd75b73	-0.105154894
99	0xbe09b94e	-0.13449594
100	0xbd02152c	-0.031758472
101	0xbcdc4495	-0.026888171
102	0x3de707ae	0.11280762
103	0xbdf39e32	-0.11895408
104	0x3d6ff6e0	0.058585048
105	0x3d411298	0.047136873
106	0xbdc71c36	-0.09722178
107	0xbd1f4ee7	-0.038893607
108	0xba9f6475	-0.0012160676
109	0x3d9e8782	0.0774069
110	0xbe0d336e	-0.1378915
111	0xbe091299	-0.13386
112	0xbd05b9d5	-0.032647926
113	0x3e11f1a6	0.14252338
114	0x3da463f1	0.08026875
115	0xbc1e4054	-0.009658892
116	0xbd59cc64	-0.053173438
117	0xbde7f8cb	-0.1132675
118	0x3e171052	0.1475232
119	0xbcff504c	-0.031166218
120	0x3cc47958	0.023983642
121	0x3d080e13	0.033216547
122	0x3ce5dd6a	0.02805968
123	0xbc499be1	-0.012305231
124	0xbdd14116	-0.10217492
125	0xbe2ad22f	-0.16681741
126	0x3d9b5708	0.07584959
127	0xbcc7938a	-0.024362344
128	0x3ce11b52	0.027478848
129	0x3cd88b4c	0.02643361
130	0x3c51ebcd	0.012812567
131	0xbe1f8cb7	-0.15581022
132	0x3ad0c47a	0.0015927695
133	0x3e0ac688	0.13552296
134	0x3e20064a	0.15627399
135	0xbe12bb57	-0.14329277
136	0xbde4c3e4	-0.11170176
137	0xbc4b30ce	-0.012401773
138	0x3e8297fb	0.25506577
139	0x3de75aac	0.11296591
140	0x3c173533	0.009228992
141	0xbdf51326	-0.11966543
142	0xbbcab38e	-0.0061859554
143	0x3da681df	0.0813024
144	0x3e009f01	0.12560655
145	0xbd679f2d	-0.056548286
146	0x3d4acf85	0.049514312
147	0x3e412c35	0.1886452
148	0xbd726791	-0.0591808
149	0x3c7b4706	0.0153367575
150	0xbd4dcfde	-0.050247066
151	0xbea29dca	-0.31761009
152	0xbdefa7fa	-0.11701961
153	0xbe829e70	-0.25511503
154	0xbe22f7ab	-0.1591479
155	0x3e308b48	0.17240632
156	0x3dd373c5	0.10324816
157	0x3e9178db	0.28412518
158	0xbb89d482	-0.004206241
159	0x3e33f1a0	0.17572641
160	0x3c372073	0.01117717
161	0x3d8fda87	0.07024103
162	0x3d6ba9e4	0.057535067
163	0x3d81cb26	0.063375756
164	0xbdaf0773	-0.08546343
165	0xbdfc6525	-0.12323979
166	0xbe3341c7	-0.17505561
167	0x3cf0db59	0.029401468
168	0x3c459cf2	0.012061344
169	0x3c9a7e95	0.018859187
170	0x3e012c8d	0.12614651
171	0x3d82555d	0.06363938
172	0x3bcfdb05	0.006343248
173	0x3d7641bd	0.060121287
174	0xbcdcda59	-0.026959585
175	0x3cad924c	0.021187924
176	0xbe6bc0f8	-0.2302283
177	0xbe11edd4	-0.1425088
178	0xbe17ff15	-0.148434
179	0xbb59c573	-0.0033229261
180	0x3d9489d6	0.072528526
181	0x3e609503	0.21931843
182	0x3eb7c910	0.35895586
183	0x3e264a0f	0.16239189
184	0x3e4c4728	0.19949019
185	0x3b97289e	0.0046129962
186	0x3d190b69	0.037364397
187	0x3df6ab2e	0.12044369
188	0x3e1786aa	0.14797464
189	0xbda4f572	-0.080546275
190	0x3ccd1c14	0.025037803
191	0xbda10600	-0.078624725
192	0xbe42c48d	-0.1902029
193	0xbe3293a3	-0.17439131
194	0xbe1d1826	-0.15341243
195	0x3d1a65d8	0.037694782
196	0xbd954513	-0.072885655
197	0x3ccf1bc2	0.02528179
198	0xbdca0eaa	-0.09866078
199	0x3de1c625	0.11024121
200	0x3d9c7379	0.07639212
201	0xbddfed2a	-0.10933907
202	0xbd739167	-0.05946484
203	0xbe092a67	-0.13395081
204	0x3c9fa102	0.019485954
205	0x3db04621	0.08607126
206	0x3e37a36e	0.17933437
207	0x3e821719	0.25408247
208	0x3d99075b	0.07472106
209	0x3e3d718b	0.18500344
210	0xbda1947e	-0.07889651
211	0xbd819496	-0.06327169
212	0xbd1de1c2	-0.038545378
213	0x3ce41a2d	0.027844513
214	0xbce500ce	-0.027954485
215	0xbd4f244a	-0.050571717
216	0x3c66b1c6	0.01408047
217	0xbe37f2f2	-0.1796377
218	0xbe16b56a	-0.14717641
219	0xbcdd2215	-0.02699379
220	0xbc6c82fc	-0.014435526
221	0xbd705dc7	-0.058683183
222	0x3ddb65fe	0.10712813
223	0x3d4070bf	0.046982523
224	0xbcd68f9d	-0.026191527
225	0xbe55d2cf	-0.20881198
226	0xbd66198b	-0.056176703
227	0x3dd8fb14	0.10594764
228	0x3e065f81	0.1312237
229	0x3d9178c2	0.07103111
230	0xbcb92cb0	-0.022604316
231	0x3e66c057	0.2253431
232	0x3e5cbec0	0.2155714
233	0xbcf24473	-0.029573655
234	0xbdf9f20a	-0.122043684
235	0x3d986899	0.074418254
236	0x3e435c2e	0.19078133
237	0xbe121ff1	-0.14269997
238	0xbe87abe9	-0.26498345
239	0xbd951126	-0.072786614
240	0x3e0e8d45	0.13921078
241	0xbd3aadf7	-0.045576062
242	0xbdb8e1d5	-0.09027449
243	0x3c6df780	0.014524341
244	0x3e2bd72f	0.16781305
245	0xbc8aee78	-0.016959414
246	0xbdf43fd1	-0.119262345
247	0xbd7de5f0	-0.061986864
248	0x3dda5a5c	0.10661766
249	0x3dc0ab3d	0.09407661
250	0xbe04f57c	-0.1298427
251	0x3d8a8fbd	0.06765697
252	0x3e371f4c	0.17883033
253	0x3db17690	0.08665192
254	0xbd3ac125	-0.045594353
255	0xbd133e17	-0.035947885

conv1.bias f4 [16]
0	0xbd993e6c	-0.07482609
1	0x3cfb9cb6	0.030714374
2	0xbda4d02c	-0.08047518
3	0xbe15f7ff	-0.14645384
4	0xbdf45192	-0.11929621
5	0xbe334f1f	-0.17510651
6	0xbd964ae1	-0.07338501
7	0xbd9e9d9f	-0.077449076
8	0xbe04d27f	-0.12970923
9	0xbe5f54e0	-0.21809721
10	0xbe7c4eba	-0.24639407
11	0xbe02a82a	-0.12759462
12	0x3dc459d5	0.095874466
13	0xbe961830	-0.2931533
14	0x3d5d4730	0.054022968
15	0xbe02bdc2	-0.127677

conv2.weight f4 [32, 16, 5, 5]
0	0xbd4c7c8d	-0.04992347
1	0xbdfacc67	-0.12246018
2	0xbd093262	-0.033495314
3	0x3cea5263	0.028603738
4	0x3d2be3f9	0.04196546
5	0xbd2f7486	-0.042835735
6	0x3ce9bc28	0.028532103
7	0xbc0c39a9	-0.008558669
8	0x3c7a21c1	0.015266837
9	0x3cb3b217	0.021935506
10	0xbdee041c	-0.116218776
11	0x3dd0428a	0.10168941
12	0x3df5e4c7	0.120065264
13	0x3d2c7759	0.042106006
14	0x3ce3024c	0.027711056
15	0xbe15f186	-0.14642915
16	0x3c2e8640	0.010652125
17	0x3d8977cd	0.06712303
18	0x3d877d9c	0.06615755
19	0x3e286cdf	0.16447781
20	0xbdfe6065	-0.124207295
21	0xbe778138	-0.24170387
22	0xbe4cf00a	-0.20013443
23	0x3d60ee84	0.054914966
24	0x3e1b0fb5	0.1514271
25	0x3d800787	0.06251436
26	0x3da7fc95	0.08202473
27	0xbba287db	-0.004960043
28	0x3d4a9a83	0.04946376
29	0x3d19505b	0.03743015
30	0xbdf4d1c1	-0.1195407
31	0x3dd3e836	0.10347025
32	0x3d8ca3e6	0.06867199
33	0x3c4b6ac5	0.012415593
34	0x3d8a7944	0.06761411
35	0xbdabe040	-0.08392382
36	0xbcfde0ef	-0.030991046
37	0x3d488064	0.048950568
38	0x3d580466	0.05273857
39	0x3cf34167	0.029694272
40	0x3e21029a	0.15723649
41	0x3ccb5b05	0.024823675
42	0xbd9478ea	-0.07249625
43	0xbd092e08	-0.033491164
44	0xbd251c33	-0.040310096
45	0x3e326eaf	0.17425035
46	0x3d9b24ca	0.07575376
47	0x3b4069da	0.0029359967
48	0xbe3204b3	-0.17384605
49	0xbd2d9be4	-0.042384997
50	0xbd94e067	-0.07269364
51	0xbcced02e	-0.025245752
52	0xbc3cd9ef	-0.011526569
53	0xbccedb78	-0.025251135
54	0x3d9156d9	0.07096643
55	0xbe29feaa	-0.16601053
56	0xbd6aabef	-0.057292875
57	0x3d1a061b	0.03760348
58	0x3d0c5069	0.034256373
59	0xbcfdbca8	-0.030973747
60	0xbdf38b90	-0.11891854
61	0xbdc05168	-0.09390527
62	0xbdee7f28	-0.11645347
63	0x3d31fac6	0.043452047
64	0x3d563bf3	0.052303266
65	0xbec5d7fa	-0.3864134
66	0xbe277190	-0.16351914
67	0xbd38a4a5	-0.045078892
68	0x3d003a0a	0.03130535
69	0x3b916d2e	0.004438064
70	0xbee46124	-0.44605362
71	0xbec2ac4b	-0.38022074
72	0xbe50d6d5	-0.20394452
73	0xbe4b10e9	-0.1983067
74	0xbe2044ee	-0.15651295
75	0x3aeab990	0.0017908085
76	0xbd29bc98	-0.041439623
77	0xbd4c5e7f	-0.049894806
78	0xbc24be28	-0.010055102
79	0x3de9ce2b	0.114162765
80	0xbe07ff17	-0.13280903
81	0xbde6f86d	-0.11277852
82	0x3b14e9fb	0.002272247
83	0x3dc29c70	0.09502494
84	0x3dcfd192	0.10147394
85	0xbc086d61	-0.008326859
86	0xbd0a72e7	-0.033800986
87	0xbd3d2235	-0.0461752
88	0xbca52193	-0.020157611
89	0x3d6ecca5	0.058300633
90	0xbe974397	-0.29543754
91	0xbe92d8f6	-0.28681153
92	0xbe37b5a5	-0.17940386
93	0xbdabe757	-0.08393734
94	0xbd04ff92	-0.032470293
95	0xbe6bda07	-0.2303239
96	0xbe2c22b4	-0.16810113
97	0xbe8debe4	-0.27719033
98	0xbea1e79d	-0.3162202
99	0xbe0d3ae7	-0.13792
100	0x3eb0d35a	0.34536248
101	0x3df5fadc	0.12010738
102	0x3de14bd7	0.110007934
103	0x3d741afe	0.059596054
104	0x3cef5f84	0.02922035
105	0x3e999838	0.29998946
106	0x3e4ada89	0.19809927
107	0x3de195f6	0.11014931
108	0xbce7c2b0	-0.028291076
109	0xbd1f95d7	-0.038961258
110	0x3d97ff7c	0.07421777
111	0x3e12824a	0.14307514
112	0x3df09c9c	0.11748621
113	0x3d62ae6f	0.055342134
114	0xbd8d063c	-0.06885955
115	0xbea1c65f	-0.31596658
116	0xbd830c5c	-0.06398842
117	0x3dc4451c	0.09583494
118	0x3d3ef89a	0.046623804
119	0x3d1aa07a	0.0377507
120	0xbeb62b87	-0.35580084
121	0xbe8c0b1c	-0.27352226
122	0xbde3616b	-0.111025654
123	0xbdc028e4	-0.09382799
124	0xbdd10d72	-0.102076426
125	0x3d1de0a4	0.038544312
126	0xbd4e60db	-0.050385337
127	0x3cbf1761	0.023326578
128	0x3cd391ff	0.025826452
129	0x3d9856df	0.07438444
130	0x3cbf888d	0.023380542
131	0xbbeece59	-0.007287782
132	0x3db75348	0.089514315
133	0x3d875fb0	0.06610048
134	0x3d8e9fe2	0.06964089
135	0x3c054718	0.008134626
136	0x3da9a8e3	0.08284166
137	0x3dc15cd2	0.09441532
138	0x3d8698b2	0.06572093
139	0xbc02b8ba	-0.007978613
140	0xbdb2a23d	-0.08722351
141	0x3d9825bf	0.074290745
142	0x3e140fac	0.14459103
143	0x3ddea6f6	0.10871689
144	0x3d11de28	0.035612255
145	0xbdfe4283	-0.1241503
146	0xbe608b06	-0.21928033
147	0xbdef00c8	-0.11670071
148	0xbd158353	-0.036502194
149	0x3cb9cf1d	0.022681767
150	0x3e6e7139	0.23285379
151	0x3dfafd1c	0.12255308
152	0x3cdcf1f2	0.026970837
153	0x3db56610	0.088573575
154	0xbc1afe8b	-0.009460102
155	0xbba534ea	-0.0050417082
156	0x3e3982ce	0.18116304
157	0x3bb6b4a5	0.0055757337
158	0x3d1cabee	0.038249902
159	0xbc14cb78	-0.009081714
160	0xbe9636f9	-0.29338816
161	0xbda7a58f	-0.08185875
162	0xbe0dc6e2	-0.13845399
163	0xbdee52ff	-0.11636924
164	0xbdaa6da2	-0.08321692
165	0xbef7b2fe	-0.48378748
166	0xbf12dca0	-0.573679
167	0xbeb4a597	-0.35282585
168	0xbe9bd6ab	-0.30437216
169	0xbe6a887b	-0.22903626
170	0xbe4f16d2	-0.20223549
171	0xbf245175	-0.64186794
172	0xbf128901	-0.572403
173	0xbedc9288	-0.43080544
174	0xbecce152	-0.40015656
175	0xbdb05b2f	-0.08611142
176	0xbd479d32	-0.048733898
177	0xbd3726b2	-0.044714637
178	0xbdd1a85f	-0.10237192
179	0xbd2e2b36	-0.042521678
180	0x3ca33200	0.019921303
181	0xbd5181ab	-0.05114905
182	0xbd7e5c8a	-0.06209997
183	0x3c6fc37a	0.014634008
184	0x3c9d56a1	0.019206347
185	0x3dad262c	0.08454546
186	0x3d7b127a	0.061296917
187	0x3cba2dca	0.022726912
188	0x3cb19b51	0.021680506
189	0x3d054b75	0.032542665
190	0xbc07cf4b	-0.008289169
191	0x3d4bc53a	0.049748637
192	0x3d2a2210	0.04153639
193	0x3d55cc2f	0.052196678
194	0xbd707b9d	-0.058711637
195	0xbda5718c	-0.08078298
196	0x3d739a22	0.059473164
197	0x3d3c2f51	0.045943562
198	0x3ca28a05	0.019841203
199	0xbc88f843	-0.016719943
200	0x3dbf9b99	0.0935585
201	0x3d06797d	0.032830704
202	0xbaa59276	-0.001263215
203	0x3d95aefa	0.07308765
204	0x3d9b1122	0.07571627
205	0xbda93ea4	-0.08263901
206	0x3d8967a1	0.06709219
207	0x3dc4910a	0.095979765
208	0x3d7d93fc	0.061908707
209	0x3dd33336	0.10312502
210	0xbe65f74e	-0.2245762
211	0xbdceef8f	-0.10104286
212	0xbe0695a3	-0.1314302
213	0xbd893798	-0.06700057
214	0xbbc619d5	-0.00604556
215	0xbe9ac76e	-0.30230278
216	0xbf092aac	-0.5358074
217	0xbebecc75	-0.37265363
218	0xbea0fdde	-0.31443685
219	0xbe1ec19e	-0.15503547
220	0xbe6c814a	-0.23096195
221	0xbf142c50	-0.57880116
222	0xbeda8914	-0.42682707
223	0xbed3ccb5	-0.41367117
224	0xbe93d34c	-0.28872144
225	0x3cdcd194	0.026955403
226	0xbaeaf9a6	-0.0017927184
227	0x3d5ad5b5	0.053426463
228	0x3c351a8c	0.011053693
229	0x3d05abe7	0.032634642
230	0xbc53d99c	-0.0129303
231	0xbd4ffc69	-0.050777826
232	0x3b5b93d3	0.0033504858
233	0x3da09d90	0.07842553
234	0x3d5d23b5	0.05398913
235	0x3d104ce3	0.035229575
236	0x3c8f8644	0.017520078
237	0xbd94023c	-0.07226989
238	0x3b4fa378	0.0031683128
239	0x3d0ecef7	0.034865346
240	0x3b0d0f44	0.0021523992
241	0xbcd93741	-0.026515605
242	0x3cfa313b	0.030541053
243	0x3cc2411f	0.023712693
244	0x3d2f7059	0.042831752
245	0xbcd78e3a	-0.026312936
246	0x3d4307b8	0.047614783
247	0x3d69d09c	0.05708371
248	0x3d6a1fb5	0.057159144
249	0x3dddfbce	0.108390436
250	0xbd9301ff	-0.07178115
251	0xbbbce772	-0.005764895
252	0xbcb5f773	-0.02221272
253	0x3d7b8650	0.061407387
254	0x3dfccd87	0.12343889
255	0xbc183261	-0.009289355

conv2.bias f4 [32]
0	0x3de4bf41	0.11169291
1	0xbe483cba	-0.19554415
2	0xbe22704c	-0.1586315
3	0x3c1b432c	0.009476464
4	0xbde842cc	-0.113408655
5	0xbda1fa23	-0.07909038
6	0x3e8e6dcb	0.2781814
7	0x3e870978	0.26374412
8	0x3e5fc9d9	0.21854343
9	0xbe00638d	-0.12537976
10	0x3e279cb1	0.16368367
11	0xbe18391e	-0.14865538
12	0x3d60d6c6	0.054892324
13	0xbe38971e	-0.18026397
14	0x3b2f9387	0.0026790814
15	0x3a90aca5	0.001103778
16	0x3e7d3707	0.24728023
17	0x3e695337	0.2278565
18	0x3d817bc2	0.06322433
19	0xbd984200	-0.074344635
20	0xbd8ec545	-0.0697122
21	0x3e1c03bc	0.152358
22	0x3eb4df05	0.353264
23	0x3e80d3d0	0.251616
24	0xbe5a8f38	-0.21343696
25	0x3d5efde6	0.054441355
26	0x3eb418ec	0.35175264
27	0xbb1d9b8e	-0.0024049017
28	0x3d7a1491	0.06105477
29	0xbce49f0c	-0.02790787
30	0xbe7a4bc8	-0.24442971
31	0xbd608f1b	-0.054823976

fc1.weight f4 [120, 800]
0	0x3de25771	0.110518344
1	0xbc9d28c0	-0.01918447
2	0xbd6bc9c2	-0.057565458
3	0x3b9428c1	0.00452146
4	0x3e053bdb	0.13011114
5	0xbcdd464e	-0.027011063
6	0xbd27da6b	-0.040979784
7	0xbe1f06b9	-0.15529908
8	0xbe457434	-0.19282609
9	0xbe13838c	-0.1440565
10	0xbe39eb09	-0.18156065
11	0xbdbbd9fb	-0.09172436
12	0xbdaf3af1	-0.08556164
13	0xbc2cfc09	-0.010558137
14	0xbd67764e	-0.05650931
15	0xbd939941	-0.07206965
16	0x3e05bbe8	0.13059962
17	0x3da807b6	0.08204596
18	0x3de4e936	0.11177294
19	0xbc309ec9	-0.010780045
20	0xbdbd3b3f	-0.09239816
21	0x3dc0bd9b	0.094111644
22	0x3d94efab	0.072722755
23	0x3e148bd1	0.1450646
24	0x3dd73eb1	0.10510004
25	0xbe394600	-0.18093109
26	0xbdb12df1	-0.08651341
27	0x3d1d6c73	0.038433503
28	0xbe478714	-0.19485122
29	0xbc05e708	-0.008172758
30	0xbe4840a2	-0.19555905
31	0xbd345674	-0.04402776
32	0x3dc45d6a	0.0958813
33	0xbda44046	-0.08020072
34	0x3cfc49cb	0.030796906
35	0xbdf9f0ee	-0.12204157
36	0xbd360147	-0.044434812
37	0x3dd470a9	0.10373051
38	0x3b9b9d5a	0.0047489824
39	0xbd99f32d	-0.07517085
40	0xbd89b425	-0.06723813
41	0x3de3f830	0.111313224
42	0x3de1026a	0.109867886
43	0xbaf992ac	-0.0019040904
44	0xbe0a9bfd	-0.13536067
45	0xbe07fa2c	-0.13279027
46	0x3d5d0920	0.05396378
47	0xbe52265c	-0.20522445
48	0xbdacd5ff	-0.08439254
49	0xbe16e2c2	-0.14734939
50	0x3e584e1b	0.21123545
51	0x3e7cff22	0.247067
52	0x3e0017d3	0.12509088
53	0x3e1220f6	0.14270386
54	0x3dcb14d0	0.09916079
55	0x3e4522b0	0.19251513
56	0x3b1bad35	0.0023754362
57	0xbc18bc25	-0.009322201
58	0x3dc0078f	0.09376442
59	0x3e3fc694	0.18728095
60	0xbd0e44bc	-0.03473352
61	0xbda0b1a0	-0.07846379
62	0xbccf2925	-0.025288174
63	0xbd793818	-0.06084451
64	0x3d3ace40	0.04560685
65	0xbe300e7a	-0.17193022
66	0xbdfbb2e4	-0.1228998
67	0xbb158575	-0.0022815142
68	0xbd7d2f8c	-0.061812922
69	0xbc10fcee	-0.008849366
70	0x3d1cc092	0.038269587
71	0x3dae2c55	0.085045494
72	0xbd10c666	-0.035345457
73	0xbe2fe8e2	-0.17178681
74	0xbdc6e286	-0.09711175
75	0xbddabb12	-0.10680212
76	0xbcc6b039	-0.024253951
77	0xbdc237cc	-0.09483299
78	0xbe2ff6ce	-0.17183992
79	0xbe2a1002	-0.16607669
80	0xbd57f1e4	-0.05272092
81	0x3e847361	0.25869277
82	0x3e05049f	0.12990044
83	0x3e128b4c	0.1431095
84	0x3cc26f3c	0.023734681
85	0xbdb1e627	-0.08686476
86	0x3e1a25aa	0.1505343
87	0x3c2cfeb7	0.010558776
88	0x3e2546d9	0.16140307
89	0x3e105e2d	0.14098425
90	0x3d868340	0.06568003
91	0x3d6b35c0	0.057424307
92	0xbd623dba	-0.05523465
93	0xba41972c	-0.0007384892
94	0x3e165263	0.14679866
95	0xbe208bfe	-0.15678403
96	0x3ca8908b	0.020576736
97	0xbda58a8a	-0.08083065
98	0xbd3894f3	-0.045063924
99	0xbd59b4ac	-0.053150818
100	0x39c0e904	0.00036794704
101	0xbd878ef6	-0.066190645
102	0xbdabb10b	-0.08383378
103	0xbd4c00c7	-0.04980543
104	0x3d7d1b07	0.061793353
105	0xbe19e0fd	-0.15027232
106	0xbe816cc2	-0.25278288
107	0xbda735b2	-0.081645384
108	0xbdf65dc8	-0.12029606
109	0x3ab78c7f	0.0014003663
110	0x3d759c22	0.059963353
111	0x3d17f14b	0.03709535
112	0x3c16a21f	0.009193926
113	0xbc5a485a	-0.013322914
114	0xbd995816	-0.07487504
115	0x3cb56079	0.022140728
116	0x3e4ecaf1	0.20194604
117	0xbca3affe	-0.01998138
118	0x3c1086f5	0.008821239
119	0xbd096031	-0.033539
120	0xbd7198b6	-0.058983527
121	0x3db07f2c	0.08618006
122	0x3c923419	0.017847108
123	0x3b02491f	0.001988001
124	0x3b348e92	0.00275508
125	0x3db446dd	0.088025786
126	0xbccee7bc	-0.025256984
127	0x3cb5e9be	0.022206184
128	0xbdd5e373	-0.10443773
129	0xbb2dd2d5	-0.002652337
130	0xbd4ca0a2	-0.04995788
131	0xbdccf60f	-0.100078695
132	0xbdc0f36e	-0.094214305
133	0xbd2df490	-0.04246956
134	0xbd87849b	-0.06617089
135	0xbdaf8bd5	-0.08571593
136	0xbe6663f4	-0.22499067
137	0xbd77b279	-0.06047294
138	0xbd200537	-0.039067473
139	0x3d1bd121	0.038041238
140	0xbe34836b	-0.17628257
141	0xbdaca742	-0.084303394
142	0xbe065036	-0.13116536
143	0xbe3001b2	-0.17188147
144	0xbdcc1eae	-0.09966789
145	0xbe9c1991	-0.30488256
146	0xbe3f81e8	-0.18701899
147	0xbeab8469	-0.33499458
148	0xbea2194a	-0.3165992
149	0xbe2f66ec	-0.17129105
150	0xbd9aa8e3	-0.07551744
151	0xbe42a1be	-0.19007012
152	0xbdf4b057	-0.11947697
153	0xbd3a7a88	-0.04552701
154	0xbe004efe	-0.12530133
155	0xbd0c97d1	-0.03432447
156	0xbd51ab2c	-0.051188633
157	0xbc941104	-0.01807452
158	0x3b78adb2	0.0037945327
159	0xbd60ef28	-0.054915577
160	0x3d4b436e	0.049624853
161	0x3e189b46	0.14902982
162	0x3e0f3b63	0.13987498
163	0x3db282d2	0.08716358
164	0x3d631830	0.05544299
165	0x3bf17a7b	0.007369337
166	0x3d29caf2	0.04145331
167	0x3d4742ac	0.048647568
168	0x3c6f4ccc	0.014605712
169	0x3c9d0138	0.01916562
170	0x3cb42135	0.02198849
171	0xbd9c810a	-0.076418
172	0xbb5721b7	-0.0032826492
173	0xbc7cac19	-0.015421891
174	0xbc38860c	-0.011262428
175	0x3dc6cac1	0.09706641
176	0x3db347a8	0.08753902
177	0xbc56cc72	-0.013110267
178	0x3deb2d3a	0.11483236
179	0x3dcd79d4	0.100330025
180	0xbcd05811	-0.025432618
181	0xbd9c7015	-0.076385655
182	0x3db9cca3	0.090722345
183	0x3e5cf34b	0.21577184
184	0x3df3c915	0.11903588
185	0x3daf7b6e	0.08568464
186	0x3d359751	0.04433376
187	0xbc203dc8	-0.009780355
188	0x3cb05989	0.021527069
189	0x3c5a22d0	0.013313964
190	0x3da96fc8	0.08273274
191	0x3e2757a2	0.16342023
192	0x3d0397ce	0.032127194
193	0xbcef8490	-0.029238015
194	0xbd867f06	-0.065671965
195	0x3e0c25b1	0.13686253
196	0x3e1c653c	0.15272993
197	0x3d804a0c	0.06264123
198	0xbd70512f	-0.058671173
199	0xbd7c7ddb	-0.061643463
200	0x3d3bb6cd	0.04582863
201	0x3c0899e3	0.008337471
202	0x3c349bae	0.011023445
203	0x3d22c7a7	0.039741185
204	0xbcb0f480	-0.021600962
205	0xbda46bb6	-0.08028357
206	0xbd10f1c2	-0.03538681
207	0x3d01223a	0.03152678
208	0x3cac1ba8	0.021009281
209	0x3d1f8fbc	0.038955435
210	0xbda03f5f	-0.07824587
211	0x3d8ad0ee	0.067781314
212	0xbd78439b	-0.06061135
213	0x3c27029b	0.010193492
214	0x3c608abc	0.013704952
215	0x3c423781	0.0118540535
216	0x3c80fa8f	0.015744476
217	0x3d88f774	0.06687823
218	0x3cf55edc	0.029952459
219	0xbd357da5	-0.044309277
220	0xbcbf730b	-0.023370286
221	0xbdf90914	-0.12159935
222	0xbd3ed9ad	-0.04659431
223	0x3cde0466	0.027101707
224	0x3c1e6324	0.009667192
225	0xbe15fce4	-0.14647251
226	0xbd7c2e41	-0.06156755
227	0xbcf5ee9e	-0.030021008
228	0xbdeccd97	-0.11562651
229	0x3db04d7e	0.086085305
230	0xbcdf8467	-0.027284814
231	0x3cd7fa3a	0.026364435
232	0xbe5634fc	-0.2091865
233	0xbe088c72	-0.13334826
234	0xbdb1eb3a	-0.08687444
235	0xbd10de06	-0.035367988
236	0x3ccd7b2d	0.025083149
237	0xbd788fe3	-0.060684096
238	0xbde5db24	-0.112234384
239	0xbd9001c2	-0.07031585
240	0xbe1697e8	-0.14706385
241	0xbcaf15ab	-0.021372637
242	0x3cfa10a9	0.030525522
243	0xbd0a29a7	-0.03373113
244	0xbdf1e59e	-0.11811374
245	0xbdcf0319	-0.10108013
246	0xbdc26332	-0.09491576
247	0xbd23e854	-0.040016487
248	0xbdf5ed07	-0.120081
249	0xbe83f7a7	-0.2577488
250	0xbc82f4eb	-0.015985927
251	0xbcbbee01	-0.022940638
252	0xbda93cc7	-0.082635455
253	0x3b8879db	0.004164917
254	0x3bc8dfe4	0.0061302055
255	0x3c4261a9	0.011864104

fc1.bias f4 [120]
0	0x3e1bef3a	0.15227976
1	0x3e437f6f	0.19091581
2	0xbc0d49cb	-0.008623551
3	0xbcd718b5	-0.026256898
4	0xbcdd23b6	-0.026994567
5	0x3c371f4a	0.0111768935
6	0xbc504667	-0.012712098
7	0x3da6ec10	0.08150494
8	0x3e599163	0.21246867
9	0xbccd90dd	-0.02509349
10	0x3e619feb	0.2203366
11	0x3c2dbba1	0.010603816
12	0xbde8e68f	-0.113721006
13	0x3d3a1c58	0.045437187
14	0xbd8bb973	-0.06822481
15	0x3cf58ad6	0.029973429
16	0xbbbf7f7d	-0.005844055
17	0x3e705de9	0.23473324
18	0x3e17fa56	0.1484159
19	0x3e5b03b0	0.21388125
20	0xbde73890	-0.11290085
21	0x3eb2aa11	0.34895375
22	0xbcb948eb	-0.022617778
23	0xbcbb88dd	-0.02289241
24	0xbd3fdeda	-0.046843387
25	0x3e23cb6f	0.15995573
26	0xbc7fcd63	-0.015612933
27	0xbcdbce6b	-0.026831826
28	0x3cbc30b8	0.02297245
29	0xbe36de1c	-0.17858166
30	0xbde7764d	-0.11301861
31	0x3c223657	0.009900651
32	0x3e8adab2	0.27119976
33	0x3e0c1620	0.13680315
34	0x3c8d40b9	0.017242776
35	0xbd1df2b7	-0.03856155
36	0xbdd157e4	-0.10221842
37	0xbcf7e661	-0.03026122
38	0x3e630067	0.22168122
39	0xbce4b082	-0.027916197
40	0xbafbea4a	-0.0019219604
41	0x3e77ec63	0.24211268
42	0xbd30a6c4	-0.04312779
43	0xbd503f9a	-0.050841905
44	0xbd318b01	-0.043345455
45	0xbc04c71c	-0.008104112
46	0x3e9bff7d	0.3046836
47	0x3d2ff123	0.042954575
48	0xbd580b9a	-0.05274544
49	0xbe180ba3	-0.14848189
50	0x3eb60683	0.35551843
51	0x3e1a3843	0.15060525
52	0xbd4239cc	-0.0474184
53	0x3e68af2e	0.22723076
54	0xbdbeb291	-0.093114026
55	0x3e9a98f0	0.30194807
56	0xbcdb7877	-0.02679084
57	0xbd15a12f	-0.03653067
58	0xbe635b2b	-0.22202747
59	0xbd54b24a	-0.051927842
60	0xbd937be5	-0.072013654
61	0xbdc22959	-0.09480543
62	0xbbea17b5	-0.0071439394
63	0xbdb7ad1e	-0.08968566
64	0x3e061e1c	0.13097423
65	0x3e89cf9b	0.26916203
66	0xbbeff833	-0.007323289
67	0x3ec03eae	0.3754782
68	0x3d1a9b39	0.037745688
69	0xbd0002f1	-0.031252805
70	0x3c8fb45e	0.01754206
71	0xbc5aafa2	-0.013347538
72	0xbeab458d	-0.334515
73	0xbd4da154	-0.050202683
74	0x3e348904	0.17630392
75	0x3c1aee5f	0.009456246
76	0x3eaebc30	0.3412795
77	0x3cd4abdc	0.025960855
78	0xbd58e842	-0.052955873
79	0xbc89cedf	-0.016822277
80	0x3c4e9706	0.012609249
81	0xbce102d2	-0.027467165
82	0xbd1712a1	-0.036883
83	0x3df600f2	0.12011899
84	0x3db9ea25	0.09077863
85	0x3e5eb615	0.21749146
86	0xbd9fc8cd	-0.078019716
87	0x3c20b260	0.009808153
88	0x3ebd6179	0.36988428
89	0x3ac6f7a5	0.0015180005
90	0xbbad47f4	-0.0052881185
91	0x3e8d9c02	0.27658087
92	0xbc463ee2	-0.012099953
93	0x3c4d95f9	0.012547963
94	0x3d54c151	0.051942173
95	0x3ea04918	0.31305766
96	0xbbab27fd	-0.005223273
97	0x3e056d84	0.13030058
98	0xbd052ef6	-0.03251549
99	0xbd86818a	-0.06567676
100	0x3c8c5591	0.017130645
101	0x3e257a46	0.16159925
102	0xbcf5498a	-0.029942293
103	0x3e18c064	0.14917141
104	0xbbaa3575	-0.005194361
105	0xbd1777d5	-0.036979515
106	0xbceda9e9	-0.029011684
107	0x3cc20ed4	0.023688711
108	0x3e7d4822	0.24734548
109	0x3d46d004	0.048538223
110	0xbca98204	-0.02069188
111	0xbb3f3c54	-0.0029180245
112	0xbb4bfd23	-0.0031126223
113	0x3e28c94b	0.16483037
114	0x3c25f54a	0.010129282
115	0x3d8be2c1	0.06830359
116	0x3dab9dbe	0.08379696
117	0x3db4f94f	0.08836614
118	0x3d45d7d5	0.048301537
119	0x3e00adcf	0.12566303

fc2.weight f4 [84, 120]
0	0x3da45e3c	0.08025786
1	0xbb71f827	-0.0036921592
2	0xbd9b187f	-0.07573032
3	0xbd14b3f3	-0.036304425
4	0xbcdd2854	-0.026996769
5	0xbd835007	-0.064117484
6	0xbc3613d7	-0.011113129
7	0xbcbacda1	-0.02280313
8	0xbe1984fb	-0.14992134
9	0x3cc1bd41	0.023649814
10	0xbe4799d4	-0.19492275
11	0xbdc8685b	-0.09785529
12	0x3c1fbc83	0.009749535
13	0xbd615484	-0.05501224
14	0xbdc972e0	-0.09836364
15	0x3d9866c6	0.074414775
16	0x3d9a4724	0.075331
17	0xbdf1f1d3	-0.118137024
18	0xbdb2da95	-0.087330975
19	0xbdfedbe8	-0.124442875
20	0x3d411549	0.04713944
21	0xbce28d8f	-0.027655391
22	0xbd73744a	-0.059437074
23	0x3cef5b53	0.029218351
24	0xbd78dbbd	-0.060756434
25	0xbd12a48e	-0.035801463
26	0xbcad5a8f	-0.021161346
27	0xbd851f7b	-0.06500145
28	0xbdfe6cb1	-0.12423075
29	0x3d087336	0.033313
30	0x3e5d8e93	0.21636419
31	0xbb7092ca	-0.0036708587
32	0x3e0b00ae	0.13574478
33	0xbd3f94ee	-0.04677289
34	0xbe044edd	-0.12920709
35	0xbdabe47f	-0.083931915
36	0x3e22c4af	0.15895341
37	0x3db03c9a	0.08605309
38	0xbe239bdf	-0.15977429
39	0xbd630887	-0.055428054
40	0xbd298e29	-0.04139534
41	0xbda7f373	-0.08200731
42	0xbdf3e446	-0.11908774
43	0x3c262df8	0.010142796
44	0xbdc117b7	-0.09428351
45	0xbc85983d	-0.016307944
46	0xbdb79965	-0.089648046
47	0xbd8a5bcb	-0.06755789
48	0x3d42ee0b	0.047590297
49	0xbdc6a3e0	-0.096992254
50	0xbdb61ce3	-0.088922285
51	0x3b805e17	0.0039174664
52	0xbda884bd	-0.08228443
53	0xbdb9923f	-0.09061097
54	0x3dcf19ad	0.10112319
55	0xbd9f6fb7	-0.0778498
56	0xbc5cfb0b	-0.013487588
57	0xbd8103ca	-0.06299551
58	0xbd41d5e8	-0.047323138
59	0xbd80fc35	-0.06298105
60	0x3d575fdf	0.052581664
61	0xbcc95f45	-0.02458156
62	0x3dad1bf6	0.08452599
63	0x3cb50e52	0.022101555
64	0xbda2a7cc	-0.07942161
65	0xbe6749a5	-0.22586687
66	0x3d9dbb8b	0.077017866
67	0x3d8f09d1	0.06984294
68	0xbd85723a	-0.065159276
69	0x3d34206f	0.043976244
70	0xbc8a24a8	-0.016863182
71	0xbcf8a2ed	-0.030351127
72	0xbe2ac479	-0.16676511
73	0x3d38c268	0.045107275
74	0x3d08bc79	0.033382867
75	0xbe24658d	-0.16054364
76	0x3d73e4f7	0.05954453
77	0xbd7dd8bc	-0.061974272
78	0x3ca1f304	0.0197692
79	0xbd815b1c	-0.06316206
80	0x3c752ed7	0.014964781
81	0xbd5417f6	-0.051780663
82	0xbb8c8780	-0.004288614
83	0x3d28c669	0.041204844
84	0x3d479eb5	0.04873534
85	0x3d089b4a	0.03335122
86	0xbd3ab000	-0.045578003
87	0x3dbb8ead	0.091580726
88	0xbe0759db	-0.13217871
89	0xbd7a4dcd	-0.061109353
90	0xbd8bc8c0	-0.068253994
91	0xbe3b5613	-0.18294553
92	0x3da2c30d	0.07947359
93	0xbd3ccdbb	-0.046094637
94	0x3dfcbb3d	0.123404
95	0x3d1c5b93	0.03817327
96	0xbdfe9be1	-0.12432075
97	0xbe92c75e	-0.2866773
98	0x3cc09fff	0.023513792
99	0x3c3cbaf0	0.011519179
100	0x3d41984f	0.047264393
101	0x3ae2c4ec	0.0017301119
102	0xbce5a454	-0.02803246
103	0xbcd814f3	-0.026377177
104	0xbdc94d8d	-0.09829245
105	0xbc89512c	-0.016762339
106	0x3e11d781	0.14242364
107	0xbda03bfb	-0.0782394
108	0xbe95faf2	-0.2929302
109	0xbd8bd5ae	-0.068278655
110	0x3c944484	0.018099077
111	0xbbcdddc9	-0.0062825424
112	0x3d024360	0.031802535
113	0xbd16386a	-0.036674894
114	0xbd9431ff	-0.072360985
115	0xbd065054	-0.03279145
116	0xbd7e8be7	-0.06214514
117	0x3d88c09c	0.06677362
118	0x3dc961b5	0.09833089
119	0xba3fffa6	-0.00073241664
120	0xbd84f405	-0.064918555
121	0xbd115500	-0.035481453
122	0x3b145453	0.002263327
123	0x3bd3e1ec	0.006466141
124	0x3b730360	0.003708087
125	0x3b2119d9	0.0024582057
126	0xbd69bc59	-0.057064388
127	0x3c991740	0.018687844
128	0xbcfea0c8	-0.031082526
129	0xbda79661	-0.081829794
130	0xbd9c0e0a	-0.07619865
131	0xbd8b8276	-0.06811993
132	0xbd9e438a	-0.07727726
133	0xbd927477	-0.0715112
134	0xbd52f8dd	-0.051506866
135	0x3c800bce	0.015630629
136	0xbd77ec12	-0.06052787
137	0x3e11dd58	0.14244592
138	0x3e00a387	0.1256238
139	0x3e31140e	0.17292807
140	0x3d14a39e	0.03628885
141	0xbc95f4bb	-0.018305173
142	0xbdce2b55	-0.10066859
143	0xbd0d3135	-0.034470756
144	0xbace951b	-0.001576099
145	0xbd99dfd2	-0.075133935
146	0xbdd6b625	-0.1048396
147	0x3d6b33b4	0.057422355
148	0x3d989144	0.07449582
149	0xbdb34165	-0.087527074
150	0xbd8180fb	-0.06323429
151	0xbd970737	-0.07374423
152	0xbd8d7fab	-0.06909116
153	0x3e1c29d7	0.15250336
154	0xbdb8c8ea	-0.09022696
155	0xbdeaa8c9	-0.114579745
156	0x3d1d2c73	0.03837247
157	0xbc688da6	-0.014193928
158	0x3dae0990	0.08497918
159	0x3d740fa5	0.059585232
160	0x3d84200c	0.06451425
161	0xbde25c66	-0.1105278
162	0x3d667df4	0.056272462
163	0x3c0cbe98	0.008590363
164	0x3d6939a0	0.05693972
165	0x3d1093a6	0.03529706
166	0x3dfb3a6d	0.12267003
167	0xbd81a0fd	-0.06329534
168	0xbd8dfb4e	-0.06932698
169	0xbe60dcf4	-0.21959287
170	0x3dc6f16b	0.097140156
171	0xbdba521b	-0.090976916
172	0xbe00cdbb	-0.1257848
173	0xbd0bc949	-0.034127507
174	0xbe8feb0d	-0.28109017
175	0x3d97693a	0.07393117
176	0x3c51e4c0	0.012810886
177	0xbdce8ad3	-0.10085072
178	0x3de8086d	0.11329732
179	0x3e085e43	0.13317208
180	0xbd354987	-0.044259574
181	0xbd377f1a	-0.044798948
182	0x3c879cb6	0.016554218
183	0x3dbe8ea1	0.09304548
184	0x3db765a3	0.089549325
185	0xbddf2913	-0.10896506
186	0x3c28ad39	0.010295206
187	0x3ba9d85c	0.0051832628
188	0x3e06cc3a	0.13163844
189	0x3e1d01d9	0.15332736
190	0xbdc4c9ba	-0.09608789
191	0xbb815183	-0.0039464845
192	0xbde25fd9	-0.11053438
193	0x3e00ad0c	0.12566012
194	0x3d6ebd85	0.05828621
195	0xbca8d201	-0.02060795
196	0x3dbc2fdd	0.09188817
197	0x3daeff5a	0.08544798
198	0xbcb30c88	-0.021856561
199	0x3d4a2363	0.049350154
200	0x3d170c1c	0.036876783
201	0xbd2d255f	-0.042271968
202	0x3cd83400	0.026391983
203	0x3db62a3f	0.088947766
204	0xbcdb8132	-0.026795004
205	0x3c62f37e	0.013851998
206	0x3ce02532	0.027361486
207	0xbd97c226	-0.07410078
208	0x3dba56aa	0.09098561
209	0xbd0337ad	-0.03203552
210	0xbd017b59	-0.031611774
211	0x3e600e24	0.21880394
212	0x3cf3fdc5	0.029784093
213	0xba6aeb00	-0.00089614093
214	0xbcd3e156	-0.025864284
215	0xbdf87cdc	-0.1213319
216	0xbd96c91b	-0.073625766
217	0x3ca1c23f	0.019745944
218	0x3d75d520	0.060017705
219	0xbd9395c5	-0.07206301
220	0xbd53c271	-0.051699106
221	0x3e115d07	0.14195643
222	0xba4c0e7b	-0.000778414
223	0x3d70a0e0	0.058747172
224	0xbca9f7e5	-0.020748088
225	0xbd4b27ec	-0.04959862
226	0x3d4e7a1b	0.050409418
227	0xbdbce611	-0.09223569
228	0xbb511797	-0.003190493
229	0x3e20f755	0.1571935
230	0xbd5fb752	-0.054618187
231	0x3da518d4	0.08061376
232	0xbd97a723	-0.07404926
233	0xbc8bb6be	-0.017054912
234	0xbd66de9d	-0.056364644
235	0xbd401eea	-0.046904482
236	0x3d5b08aa	0.05347506
237	0xbdb7b5f6	-0.08970253
238	0xbd62f61f	-0.0554105
239	0xbb0cfa30	-0.0021511428
240	0xbe125636	-0.142907
241	0xbc96600e	-0.01835635
242	0xbe2f21f0	-0.1710279
243	0xbc80f894	-0.015743531
244	0x3cf9c921	0.030491414
245	0x3d146540	0.036229372
246	0x3da3ae93	0.07992282
247	0xbd8d876e	-0.06910597
248	0xbe64a172	-0.22327211
249	0x3be17d54	0.0068813954
250	0x3cdf2bcc	0.027242564
251	0xbc7e2caf	-0.015513583
252	0xbdf6cc40	-0.12050676
253	0x3c918d1f	0.017767487
254	0xbe952d91	-0.29136327
255	0x3d8c4915	0.06849877

fc2.bias f4 [84]
0	0xbc9a252b	-0.018816551
1	0x3e4f2d3b	0.20232098
2	0x3da5ac90	0.08089554
3	0xbd989aa9	-0.07451374
4	0x3e9bf204	0.3045808
5	0x3e60ba62	0.219461
6	0xbdb85268	-0.09000093
7	0xbd91688f	-0.07100021
8	0x3e88e25b	0.26735196
9	0xbd411634	-0.047140315
10	0x3e341732	0.17586973
11	0x3c8916b8	0.016734466
12	0x3db3fbe6	0.0878828
13	0x3e9851a4	0.29749787
14	0xbdf33d69	-0.118769474
15	0x3ef70780	0.4824791
16	0x3e1c8805	0.15286262
17	0x3e3cdb22	0.18442968
18	0x3e81a5da	0.25321847
19	0x3c9bb4a3	0.019007033
20	0x3e05d3c7	0.13069068
21	0x3c6acf51	0.014331655
22	0x3e97df9f	0.29662797
23	0xbe2ae248	-0.16687882
24	0x3ec13e83	0.37743005
25	0xbc49d240	-0.012318194
26	0x3e0ba9ef	0.13639043
27	0x3cf9bdf7	0.03048609
28	0x3e5b017c	0.21387285
29	0x3e3fe616	0.18740115
30	0xbd9e3c46	-0.0772634
31	0x3d3571a9	0.044297848
32	0x3e059d88	0.13048375
33	0xbe2e0451	-0.16993834
34	0x3e402d74	0.18767339
35	0x3e028f06	0.12749872
36	0x3e1aa617	0.15102421
37	0x3c26d9b1	0.010183738
38	0xbb7cda6f	-0.0038582345
39	0x3ead2abb	0.33821663
40	0xbd144cf4	-0.0362062
41	0x3e1d895c	0.1538443
42	0x3eb370b5	0.35046926
43	0x3e6f3dd5	0.23363431
44	0x3d135b8a	0.03597597
45	0xbda58a06	-0.080829665
46	0x3e2b2326	0.16712627
47	0xbe044c54	-0.12919742
48	0x3d89e6f0	0.06733501
49	0xbd4e3f3f	-0.050353285
50	0x3db7f0bf	0.089814655
51	0xbc509696	-0.012731215
52	0x3e045b85	0.12925537
53	0x3d911e6f	0.07085883
54	0x3da7dfe7	0.08197003
55	0x3e4673e9	0.19380154
56	0x3e151f2b	0.14562671
57	0x3e178448	0.14796555
58	0x3cf3828b	0.029725334
59	0xbd319601	-0.043355945
60	0xbe0e082c	-0.13870305
61	0x3e2b6b74	0.16740209
62	0x3e500fc2	0.20318511
63	0x3e856ba7	0.26058695
64	0x3b9afd8d	0.0047299326
65	0xbe6709aa	-0.2256228
66	0x3e5fdcac	0.21861523
67	0xbe1737eb	-0.14767425
68	0xbdf9fc1a	-0.12206288
69	0x3d769fa2	0.06021083
70	0x3cc6997e	0.024243113
71	0x3e38c733	0.18044738
72	0xbc605092	-0.013691084
73	0x3d02c118	0.03192243
74	0xbd920c36	-0.07131235
75	0x3cbf21b9	0.02333151
76	0x3d12bb55	0.035823185
77	0x3b132ec2	0.002245829
78	0xbdb309d4	-0.08742109
79	0x3e8db8c3	0.27680025
80	0xbe22624b	-0.15857808
81	0x3e0ceb95	0.13761742
82	0x3ebd809d	0.37012187
83	0x3e014560	0.1262412

fc3.weight f4 [10, 84]
0	0xbde108b1	-0.10987986
1	0x3cfa38c9	0.030544655
2	0x3e4ade1d	0.19811292
3	0x3e16df61	0.1473365
4	0x3dfa16f9	0.12211413
5	0xbdb95307	-0.09049039
6	0xbe30d907	-0.1727029
7	0xbc1833a6	-0.009289658
8	0x3d838a56	0.0642287
9	0xbcafa605	-0.021441469
10	0xbe10e88b	-0.14151208
11	0x3b4937f9	0.0030703528
12	0x3d247162	0.040147193
13	0xbd06044a	-0.032718934
14	0x3d0707da	0.032966472
15	0xbc045496	-0.0080768075
16	0x3cef7d00	0.02923441
17	0x3daccc36	0.08437388
18	0xbcab8318	-0.020936534
19	0xbcc37ad9	-0.02386229
20	0x3dd0a637	0.10187953
21	0x3d0e6248	0.034761697
22	0xbe010d37	-0.12602697
23	0x3d9de953	0.07710519
24	0xbe9e9ab2	-0.30977398
25	0xbd9d18ab	-0.07670721
26	0x3ded5928	0.11589271
27	0xbc3893c7	-0.011265702
28	0x3ce33766	0.027736377
29	0x3d4e4deb	0.050367277
30	0xbda78455	-0.08179537
31	0x3d474645	0.048651
32	0xbdec5266	-0.11539154
33	0xbba6c997	-0.0050899494
34	0xbd8d2780	-0.068923
35	0xbccb68ce	-0.024830248
36	0xbe796b29	-0.24357285
37	0xbd224d3a	-0.03962443
38	0xbcfa7044	-0.03057111
39	0xbdb943ab	-0.0904611
40	0x3c27d992	0.010244744
41	0x3dc3228e	0.09528075
42	0x3d7937be	0.060844176
43	0x3e1e635f	0.15467595
44	0xbe4bd886	-0.19906816
45	0x3d90dced	0.07073388
46	0xbd5232b2	-0.051317878
47	0xbd669c5c	-0.05630146
48	0x3e2c9741	0.16854574
49	0x3de9ec19	0.11421985
50	0xbbe01528	-0.0068384595
51	0x3d2bf4b1	0.041981403
52	0x3a0bb63a	0.0005329583
53	0xbdbb7bc7	-0.09154468
54	0xbd1ee570	-0.038793027
55	0x3da12c69	0.07869799
56	0xbe395ffc	-0.18103021
57	0xbe3cecc5	-0.18449695
58	0xbe962475	-0.2932469
59	0xbe05a254	-0.13050205
60	0x3e3395d2	0.1753762
61	0x3d7caf52	0.061690636
62	0x3d467a1e	0.048456304
63	0xbde22edd	-0.11044095
64	0x3dbc064c	0.091808885
65	0xbc9bbd54	-0.019011177
66	0xbdeefbc4	-0.11669114
67	0xbe001f5d	-0.12511964
68	0xbe52f1a2	-0.20599988
69	0xbe0ecf7f	-0.13946341
70	0x3cea8d90	0.028631955
71	0xbe406a90	-0.1879065
72	0x3deafde5	0.11474208
73	0xbe78d7a2	-0.24301007
74	0xba567389	-0.0008180668
75	0x3d94f41b	0.07273122
76	0xbe6754b7	-0.2259091
77	0x3e0d5163	0.13800578
78	0xbc7fdc38	-0.015616469
79	0xbd4ec25d	-0.050478328
80	0x3e49135b	0.1963629
81	0xbd9ed043	-0.077545665
82	0xbe68826f	-0.22706006
83	0x3d574310	0.05255419
84	0xbdd4bce0	-0.103875875
85	0xbe048640	-0.12941837
86	0xbde43591	-0.111430295
87	0xbcb52cf2	-0.022116158
88	0xbe79bec8	-0.24389184
89	0xbe2c00fa	-0.16797248
90	0x3e0ccccf	0.13750003
91	0xbd5f7108	-0.054551154
92	0xbe4fef6f	-0.2030618
93	0x3dc2a071	0.09503258
94	0xbd0a9c48	-0.033840448
95	0x3d6d3a43	0.05791689
96	0xbe3ea1ea	-0.18616453
97	0xbe22bb92	-0.15891865
98	0x3da28496	0.07935445
99	0xbe1bda70	-0.15220046
100	0xbe3b5d1b	-0.18297236
101	0xbe8e979f	-0.27850053
102	0xbdfadc32	-0.1224903
103	0xbd3258a5	-0.04354157
104	0x3dc212d2	0.09476246
105	0xbe0b94f3	-0.13631038
106	0xbe508d3e	-0.2036638
107	0xbce87e42	-0.028380517
108	0xbca50b1c	-0.020146899
109	0xbdf42ce2	-0.11922623
110	0xbdeaeb5a	-0.11470671
111	0xbda6d4e1	-0.08146072
112	0xbd5bd213	-0.05366714
113	0xbe0a1243	-0.13483529
114	0x3c6dd026	0.0145149585
115	0x3db06679	0.08613295
116	0xbd531ae3	-0.051539313
117	0x3e0437e0	0.1291194
118	0xbe74ffe1	-0.23925735
119	0x3d90b130	0.07065046
120	0xbdc55bba	-0.09636636
121	0xbdd3bc03	-0.10338595
122	0xbd5e31f0	-0.054246843
123	0x3d127ecd	0.035765458
124	0xbdf556b7	-0.1197943
125	0xbe9b696a	-0.30353862
126	0xbe674bb0	-0.22587466
127	0xbdc46589	-0.09589679
128	0xbc89ade0	-0.016806543
129	0x3cdeb585	0.027186165
130	0xbb00316c	-0.0019560708
131	0x3de2837a	0.110602334
132	0xbe16b67a	-0.14718047
133	0xbdf4f57f	-0.11960887
134	0x3de76555	0.112986244
135	0x3bbb29cc	0.0057117697
136	0x3dcd5812	0.10026564
137	0x3d831eb1	0.06402338
138	0x3da4e13a	0.08050771
139	0xbcd25eb6	-0.025679927
140	0x3d01355e	0.031545036
141	0xbe35ba74	-0.17746907
142	0x3db5db94	0.08879772
143	0xbdc73560	-0.09726977
144	0xbe340843	-0.17581277
145	0xbe15c6c0	-0.14626598
146	0x3d4e054d	0.050298024
147	0xbdab7bcd	-0.083732225
148	0xbdc331b3	-0.09530964
149	0x3e07c194	0.13257438
150	0xbcacddc9	-0.02110185
151	0xbcfab64d	-0.030604506
152	0xbe750d9e	-0.23930976
153	0xbe041154	-0.12897235
154	0x3d912d14	0.07088676
155	0x3df3e277	0.11908429
156	0x3de962de	0.113958105
157	0xbe601dc8	-0.2188636
158	0x3b7b65fe	0.0038360353
159	0x3dd7b9ba	0.105334714
160	0x3d98614f	0.07440435
161	0xbdb7d6c9	-0.08976514
162	0xbc5b56c5	-0.013387387
163	0xbe328e0e	-0.17437002
164	0x3e18f30d	0.14936467
165	0xbd02566a	-0.031820692
166	0xbdc59c27	-0.09648924
167	0xbd34fd4f	-0.044186886
168	0x3c0bb43a	0.008526856
169	0xbdd160e8	-0.102235615
170	0x3de9bce0	0.11412978
171	0x3d1ede88	0.03878644
172	0xbda688c2	-0.08131553
173	0xbd8c12af	-0.06839501
174	0x3d4eac2b	0.05045716
175	0x3d4e969a	0.050436594
176	0x3e05f611	0.13082148
177	0xbd6ace8d	-0.05732589
178	0x3e42a559	0.19008388
179	0x3d25997f	0.04042959
180	0x3decf55b	0.11570235
181	0xbc94c9fc	-0.01816272
182	0x3d60fddc	0.0549296
183	0xbe1308af	-0.14358781
184	0xbe18d6b6	-0.14925656
185	0x3dfdbb6a	0.12389262
186	0xbe22e8a8	-0.15909064
187	0xbd2f1b6e	-0.04275077
188	0xbdabfa12	-0.083973065
189	0xbb9dc365	-0.0048145526
190	0xbdbecb7d	-0.09316156
191	0x3d0aff6c	0.033934996
192	0x3dedb82d	0.11607394
193	0xbd235bba	-0.0398824
194	0xbe8f56dc	-0.27995956
195	0xbd706059	-0.058685634
196	0x3d0bdc29	0.034145508
197	0x3e1222d7	0.14271103
198	0xbe0f967b	-0.14022247
199	0xbe094b4d	-0.13407631
200	0xbdb55c4e	-0.08855496
201	0xbdc330fd	-0.09530828
202	0x3e1cbc7f	0.1530628
203	0xbc5208a0	-0.012819439
204	0xbde70026	-0.11279325
205	0xbe0bf5ca	-0.1366798
206	0x3d8ed56a	0.06974299
207	0xbdc63314	-0.09677711
208	0x3dd2f4a3	0.10300567
209	0x3e3f7283	0.18696027
210	0xbe00158c	-0.1250822
211	0x3c25c2b6	0.0101172235
212	0xbd05ae10	-0.032636702
213	0xbdc4fa32	-0.096180335
214	0xbdd837e0	-0.10557532
215	0x3cca02d7	0.024659557
216	0x3e1afd07	0.15135585
217	0xbccd5f86	-0.025069963
218	0xbd27d130	-0.04097098
219	0x3e051e2b	0.1299979
220	0xbd8e3bf9	-0.069450326
221	0xbcf1ffbb	-0.029540887
222	0xbcf40f8c	-0.02979257
223	0xbd8887f5	-0.06666557
224	0x3dc81aaf	0.097707145
225	0x3de53a85	0.11192802
226	0xbd1e0e75	-0.038588006
227	0x3caa576f	0.020793645
228	0x3dc750fd	0.09732244
229	0x3e21847a	0.15773192
230	0x3db288e4	0.08717516
231	0x3dff2605	0.124584235
232	0x3d72ac3f	0.059246298
233	0x3d1110da	0.03541646
234	0xbded4e17	-0.1158716
235	0xbb04d364	-0.00202676
236	0xbdafa8e5	-0.08577136
237	0xbe0d9620	-0.138268
238	0x3d78f524	0.06078066
239	0xbe2c235f	-0.16810368
240	0xbe091f31	-0.13390805
241	0xbd8dfae6	-0.06932621
242	0xbc7cb709	-0.015424498
243	0xbe18e25d	-0.149301
244	0xbd7a9363	-0.061175715
245	0xbd96bb21	-0.07359911
246	0xbd2fc7a8	-0.042915016
247	0xbd5c7616	-0.053823553
248	0xbcd56138	-0.026047334
249	0x3ca211d1	0.019783886
250	0xbba08aa5	-0.00489934
251	0x3dccf924	0.10008457
252	0xbd11eae2	-0.035624392
253	0x3e07c443	0.13258462
254	0xbd9836b4	-0.07432309
255	0xbd8666b9	-0.065625615

fc3.bias f4 [10]
0	0xbd87a35f	-0.066229574
1	0xbd9772e2	-0.07394959
2	0xbe3159f6	-0.17319474
3	0x3e0fb540	0.14033985
4	0x3e98dfef	0.29858348
5	0xbdb16f38	-0.086637914
6	0x3d9428db	0.07234355
7	0xbd3981a8	-0.045289665
8	0x3d69b667	0.057058718
9	0xbdc79eee	-0.0974711
